data.pth (torch, 5015 bytes, 6 tensors)

l1.weight f4 [8, 54]
-0.1462309 0.6385056 0.49012214 -0.18183145 0.37274092 -0.3574641 -0.02732303 0.61641824
0.5001471 0.65904635 -0.1883597 -0.30761698 0.9044242 0.007626128 0.65145683 -0.36663774
-0.16916704 -0.35749194 0.2129498 -0.3576895 -0.13616835 -0.3575434 -0.3575035 -0.8465185
-0.34931523 -0.34927636 0.509636 0.5905058 0.41219836 0.5223126 -0.29664123 -0.15377721
-0.28476343 0.4707955 0.6352069 -0.1132369 0.2988525 0.45925802 -0.026639275 -0.07933913
-0.28085414 0.3106506 0.028245332 0.48246935 0.4539671 0.8279386 -0.54744387 -0.050856855
0.17580839 0.4300167 -0.13173203 0.4104213 -0.12080922 0.40539768 0.45988658 -0.021175878
-0.5692631 0.52079654 0.17051856 -0.4833455 -0.18073377 -0.40131637 -0.5414324 -0.37094703
0.63410765 0.24690929 -0.106735654 0.16074093 -0.27488452 0.2612873 0.40518025 -0.4983456
0.15808517 0.83154464 0.56355923 0.57391244 0.55378073 0.6675796 0.12048969 0.5149522
0.0993119 -0.4393952 -0.16088146 -0.4659563 -0.17424972 0.15603398 0.42041108 -0.37461752
-0.32402295 0.3219505 -0.06694866 -0.4971791 -0.26425856 -0.28852817 -0.20179042 0.25668323
0.22192031 -0.18903853 0.20030889 -0.15564515 0.9598549 0.5452576 0.31821603 0.00479219
0.3601008 0.06924225 -0.3294612 0.112882234 0.30752757 0.47620398 -0.5528864 0.43910274
0.15926099 0.6833829 -0.19942722 -0.41096306 -0.4683039 -0.34540415 0.54377913 -0.17983532
0.36094084 -0.15353358 0.3321432 0.20589064 0.53975844 0.54510653 0.5988425 0.64315844
0.27589127 0.58824944 0.5796973 0.68477887 -0.3270563 0.4619409 0.8272524 0.51264006
0.5670092 0.3387428 0.34433824 -0.31376112 0.28553674 -0.40847728 0.41855255 0.27183697
0.41614026 -0.5610729 -0.17118567 -0.20967473 0.51104593 0.80119336 -0.10529211 0.43331972
-0.35192305 0.5356815 0.33452737 0.23594987 0.7000071 0.8924759 0.12114305 0.66832817
-0.11036736 0.32836103 -0.14829199 -0.17089282 0.32877862 0.35286623 0.31240568 -0.038422465
0.46863982 0.2865011 0.535974 0.44408628 0.3591546 0.70167047 0.41472352 0.6793218
-0.09976103 0.66585183 0.39814523 -0.17220943 -0.3349971 0.38077566 -0.13163435 0.53305274
0.37331825 0.5455946 0.81786454 0.3555873 -0.37617305 -0.36962524 -0.15673862 -0.21770409
-0.0779854 0.7475172 -0.09855981 0.50319296 -0.14065205 0.6226016 -0.12529829 0.5769809
0.5872904 0.5950013 0.089795545 -0.569997 0.6909132 -0.1952121 0.7163108 -0.15623038
-0.5906954 -0.3105733 0.17628999 -0.4606055 0.54491997 -0.32050878 0.6488082 0.025598682
-0.27941817 0.66764 -0.36542174 -0.46127468 -0.21472579 0.81259966 -0.10290675 -0.27478445
-0.1946896 -0.24662153 -0.3982668 -0.088584304 0.2309944 0.04319812 0.46776754 -0.15593946
-0.29087153 0.7797135 0.1774223 -0.68930924 -0.17269935 -0.6892844 -0.68915755 -0.6633121
-0.112177774 -0.3597705 0.47048965 0.66793597 0.48083577 0.69237983 0.55455875 -0.022351785
-0.23400447 -0.22436565 0.73848706 -0.045309246 0.5991594 -0.27472425 -0.26352194 -0.20398514
00000000: 8ebd 15be 1a75 233f 4af1 fa3e 0632 3abe
00000010: e6d7 be3e 8905 b7be 8cd4 dfbc 96cd 1d3f
00000020: a409 003f 43b7 283f 5de1 40be f97f 9dbe
00000030: 5888 673f 99e4 f93b e0c5 263f f1b7 bbbe
00000040: 203a 2dbe 2f09 b7be 830f 5a3e 1423 b7be
00000050: b76f 0bbe ee0f b7be b30a b7be 70b5 58bf
00000060: 72d9 b2be 5ad4 b2be 8177 023f 632b 173f
00000070: aa0b d33e 47b6 053f 5ce1 97be c677 1dbe
00000080: 83cc 91be 1c0c f13e eb9c 223f bfe8 e7bd
00000090: 3203 993e de23 eb3e 9c3a dabc 8e7c a2bd
000000a0: 1dcc 8fbe 980d 9f3e c162 e73c 3906 f73e
000000b0: 606e e83e c9f3 533f 4825 0cbf 474f 50bd
000000c0: 1d07 343e 262b dc3e c3e4 06be be22 d23e
000000d0: d36a f7bd 4990 cf3e 4176 eb3e 0979 adbc
000000e0: 3abb 11bf ec52 053f 6b9c 2e3e 1079 f7be
000000f0: 4612 39be 5779 cdbe 509b 0abf c5ec bdbe
00000100: e154 223f cad5 7c3e 3998 dabd 4599 243e
00000110: aabd 8cbe 73c7 853e c973 cf3e 2827 ffbe
00000120: 14e1 213e 1ce0 543f 6b45 103f edeb 123f
00000130: 93c4 0d3f 7fe6 2a3f 4cc3 f63d e8d3 033f
00000140: 0a64 cb3d 68f8 e0be 1cbe 24be d391 eebe
00000150: 856e 32be 5fc7 1f3e 1f40 d73e decd bfbe
00000160: 56e6 a5be b2d6 a43e 611c 89bd 428e febe
00000170: e64c 87be f7b9 93be 26a2 4ebe fc6b 833e
00000180: 143f 633e 5193 41be c61d 4d3e 7161 1fbe
00000190: 0db9 753f 0196 0b3f 36ed a23e ce07 9d3b
000001a0: 225f b83e e1ce 8d3d 23af a8be cd2e e73d
000001b0: 4174 9d3e 02d1 f33e f789 0dbf 13d2 e03e
000001c0: 5015 233e 2ff2 2e3f a636 4cbe c069 d2be
000001d0: 87c5 efbe d0d8 b0be 1c35 0b3f c026 38be
000001e0: 3dcd b83e e837 1dbe ac0e aa3e ffd4 523e
000001f0: 9c2d 0a3f 1a8c 0b3f be4d 193f 08a6 243f
00000200: 9f41 8d3e 8497 163f 0b67 143f ab4d 2f3f
00000210: ec73 a7be 8583 ec3e d0c6 533f 613c 033f
00000220: 8427 113f b26f ad3e 1a4d b03e 4ca5 a0be
00000230: df31 923e ef23 d1be 854c d63e 372e 8b3e
00000240: 5610 d53e 79a2 0fbf 4c4b 2fbe f9b4 56be
00000250: e8d3 023f 021b 4d3f 64a3 d7bd 15dc dd3e
00000260: 422f b4be 6c22 093f 2c47 ab3e d89c 713e
00000270: aa33 333f 4d79 643f d919 f83d 8e17 2b3f
00000280: 4808 e2bd f01e a83e dbd9 17be 87fe 2ebe
00000290: ac55 a83e e2aa b43e a3f3 9f3e e060 1dbd
000002a0: 8ff1 ef3e 46b0 923e 9835 093f 475f e33e
000002b0: 1de3 b73e ada0 333f a456 d43e 09e8 2d3f
000002c0: 834f ccbd 4475 2a3f b1d9 cb3e ab57 30be
000002d0: bd84 abbe 07f5 c23e 28cb 06be 2576 083f
000002e0: 9223 bf3e 16ac 0b3f 925f 513f 8a0f b63e
000002f0: c199 c0be 853f bdbe 1780 20be d2ed 5ebe
00000300: cfb6 9fbd 4a5d 3f3f bad9 c9bd 41d1 003f
00000310: 1707 10be d262 1f3f 324e 00be 05b5 133f
00000320: aa58 163f 0152 183f bae6 b73d 53eb 11bf
00000330: b0df 303f aee5 47be 2560 373f dbfa 1fbe
00000340: d037 17bf 7703 9fbe 5d85 343e 7cd4 ebbe
00000350: e07f 0b3f ba19 a4be 4b18 263f 54b4 d13c
00000360: e60f 8fbe 74ea 2a3f 8f18 bbbe 322c ecbe
00000370: 14e1 5bbe 8806 503f c6c0 d2bd 8cb0 8cbe
00000380: b65c 47be 5b8a 7cbe a0e9 cbbe b06b b5bd
00000390: cc89 6c3e 83f0 303d 3a7f ef3e 98ae 1fbe
000003a0: 1ded 94be 4e9b 473f 31ae 353e 9276 30bf
000003b0: 19d8 30be f174 30bf a16c 30bf d2ce 29bf
000003c0: 76bd e5bd d733 b8be 05e4 f03e dafd 2a3f
000003d0: 1b30 f63e ce3f 313f 90f7 0d3f 171b b7bc
000003e0: de9e 6fbe 1cc0 65be 7d0d 3d3f 3096 39bd
000003f0: 8362 193f a8a8 8cbe 59ec 86be 7be1 50be

l1.bias f4 [8]
0.3575207 0.9400464 1.0154476 0.59058267 0.6893651 0.7649268 0.7740894 0.67318887
00000000: f40c b73e e2a6 703f 30fa 813f 6d30 173f
00000010: 3b7a 303f 3ed2 433f b92a 463f 1b56 2c3f

l2.weight f4 [8, 8]
-0.15395671 0.18660688 -0.17763703 -0.19009978 -0.23311146 -0.1672033 0.014928902 -0.2007403
1.0919569 -0.18063337 1.5314752 -0.43425176 1.3991336 -0.32194412 -0.24345268 -0.015788328
0.94896644 0.22417659 -0.5249461 1.3804268 -1.1173757 1.0113233 -0.11552563 1.303688
-0.6893198 1.8072002 1.1660733 -0.24395639 -0.44877574 0.95985335 1.7092104 0.031064637
-0.83194065 1.5003351 0.31828067 0.04122076 -0.97934425 0.5725276 1.405551 -0.23178603
-0.15426615 0.074737415 -0.255685 -0.19367577 -0.20551512 -0.14545627 0.16750234 -0.14457805
-0.82407635 0.45211774 0.347394 1.5216528 0.5295823 1.5507782 -0.9969971 1.8071675
-0.041270733 -0.04702866 0.20901713 -0.05939561 -0.16496424 0.02402383 -0.24594435 -0.13002303
00000000: d4a6 1dbe e015 3f3e 7be6 35be 84a9 42be
00000010: c5b4 6ebe 5837 2bbe 5a98 743c dd8e 4dbe
00000020: 3ec5 8b3f f4f7 38be 6107 c43f 3f56 debe
00000030: cf16 b33f dcd5 a4be a94b 79be 8656 81bc
00000040: 77ef 723f 8c8e 653e de62 06bf d3b1 b03f
00000050: 2b06 8fbf 0b73 813f b498 ecbd 40df a63f
00000060: 4377 30bf 5652 e73f e441 953f b4cf 79be
00000070: efc5 e5be f3b8 753f 68c7 da3f 447b fe3c
00000080: 10fa 54bf fb0a c03f aff5 a23e 1ad7 283d
00000090: 4eb6 7abf 2b91 123f 18e9 b33f 5159 6dbe
000000a0: f2f7 1dbe ee0f 993d 25e9 82be f152 46be
000000b0: 8e72 52be 7df2 14be bc85 2b3e 450c 14be
000000c0: abf6 52bf fa7b e73e a0dd b13e 85c5 c23f
000000d0: b592 073f e67f c63f 343b 7fbf 4451 e73f
000000e0: 800b 29bd 20a1 40bd 9608 563e d048 73bd
000000f0: 63ec 28be a0cd c43c d6d8 7bbe c224 05be

l2.bias f4 [8]
-0.16663928 0.59941226 0.13940607 0.24715075 0.46319726 -0.2611668 0.3105222 -0.095333934
00000000: 7da3 2abe 1573 193f 77c0 0e3e 1615 7d3e
00000010: 3128 ed3e a8b7 85be c4fc 9e3e 703e c3bd

l3.weight f4 [7, 8]
-0.24999857 -1.4690641 0.38162002 -0.22378486 -0.15465362 -0.16792756 0.4678201 -0.32202742
-0.106183395 0.7915542 -0.65916955 -1.6189368 -1.0024189 -0.15472846 -0.73047405 -0.028975606
-0.19850314 -0.069996275 -0.9539948 -0.3444694 -0.64796823 -0.26978537 0.8908401 0.23008439
-0.16987489 -1.2611765 0.009258409 0.41157272 0.4146778 0.13606216 0.0016632682 -0.1830693
-0.10028134 0.25536188 -0.67245126 0.23050405 -0.47640282 -0.037211284 -1.1986871 0.3263832
-0.26787168 -0.6686031 0.92688423 -1.5279925 -0.8971734 0.07440615 0.3604623 0.3371217
-0.29601303 -1.0219153 -1.2252846 0.7130514 0.8345012 -0.21860997 -1.4259832 0.20336536
00000000: a0ff 7fbe 4b0a bcbf b363 c33e dc27 65be
00000010: 855d 1ebe 34f5 2bbe 1e86 ef3e c7e0 a4be
00000020: ae76 d9bd 4ca3 4a3f 56bf 28bf 5239 cfbf
00000030: 434f 80bf 2371 1ebe 5900 3bbf 405e edbc
00000040: 6844 4bbe 355a 8fbd 0139 74bf 4b5e b0be
00000050: 3fe1 25bf 4f21 8abe 190e 643f 3e9b 6b3e
00000060: aff3 2dbe 3b6e a1bf 95b0 173c a9b9 d23e
00000070: a650 d43e e153 0b3e 0502 da3a 8576 3bbe
00000080: 4e60 cdbd cbbe 823e c425 2cbf 4109 6c3e
00000090: 12eb f3be dc6a 18bd 946e 99bf b31b a73e
000000a0: 7a26 89be 9329 2bbf 4948 6d3f 4295 c3bf
000000b0: 28ad 65bf 4062 983d 848e b83e 379b ac3e
000000c0: 058f 97be 1fce 82bf 20d6 9cbf 898a 363f
000000d0: dfa1 553f 4bdb 5fbe 9e86 b6bf 023f 503e

l3.bias f4 [7]
-0.9108737 -0.053210475 0.265344 -0.119627185 0.028071348 0.33851624 0.054691534
00000000: 052f 69bf 3af3 59bd 2bdb 873e 19ff f4bd
00000010: e2f5 e53c 0052 ad3e 3b04 603d
